
Iteration:   0%|          | 0/109 [00:00<?, ?it/s]
----------------------------------------------------------------
        Layer (type)               Output Shape         Param #
================================================================
            Conv2d-1           [-1, 16, 120, 1]           1,040
       BatchNorm2d-2           [-1, 16, 120, 1]              32
         ZeroPad2d-3           [-1, 1, 17, 153]               0
            Conv2d-4           [-1, 4, 16, 122]             260
       BatchNorm2d-5           [-1, 4, 16, 122]               8
         MaxPool2d-6             [-1, 4, 4, 31]               0
         ZeroPad2d-7            [-1, 4, 11, 34]               0
            Conv2d-8             [-1, 4, 4, 31]             516
       BatchNorm2d-9             [-1, 4, 4, 31]               8
        MaxPool2d-10              [-1, 4, 2, 7]               0
           Linear-11                    [-1, 1]              57
================================================================
Total params: 1,921
Trainable params: 1,921
Non-trainable params: 0
----------------------------------------------------------------
Input size (MB): 0.03
Forward/backward pass size (MB): 0.19
Params size (MB): 0.01
Estimated Total Size (MB): 0.23
----------------------------------------------------------------